android/app/src/main/ml/squats15-2.tflite (tflite, 217852 bytes, 18 tensors)

model_12/dense_12/BiasAdd/ReadVariableOp/resource f4 [4]
-0.0008422232 -0.022591094 -0.0121603245 -0.030409586
00000000: a4c8 5cba f510 b9bc 193c 47bc 861d f9bc

model_12/batch_normalization_100/batchnorm/mul_1;model_12/conv1d_100/conv1d/Squeeze;model_12/batch_normalization_100/batchnorm/mul;model_12/conv1d_100/conv1d;model_12/conv1d_102/conv1d f4 [32, 1, 3, 72]
0.05706966 0.008353975 -0.011501866 0.03241879 0.11837785 0.06125593 0.020713089 0.0047354284
0.03290034 -0.046926584 0.03048183 0.10589002 -0.04369269 -0.033848133 0.11647132 0.0172845
-0.074848734 -0.026788628 0.07231648 -0.015028912 -0.03699043 0.08641945 -0.08728565 0.0394784
-0.06314973 0.15551038 -0.012714063 -0.027884727 -0.0138251865 -0.048015535 -0.012504238 0.015290133
-0.024957424 0.055331558 -0.044996694 -0.010821197 -0.12124048 0.10571883 0.026678078 0.0772744
-0.082365595 -0.038237665 0.0002649228 0.025201963 -0.044550415 -0.022147663 0.12085556 0.0013529068
-0.082618006 0.0918843 0.046288766 -0.1162667 0.022575464 -0.03250597 0.03277016 0.03530486
-0.12765436 0.012795741 0.01158009 -0.02918378 -0.10879115 -0.06491347 -0.036372755 -0.09922624
-0.12322347 -0.0537247 -0.056119833 -0.038197584 -0.049949992 -0.046437778 0.014460265 0.096961364
0.026150415 -0.09404199 -0.01776102 0.07275138 0.051079117 0.06490424 -0.02585001 0.004223841
-0.06766355 -0.05729838 -0.1247488 0.09373224 0.06612247 -0.04464146 0.008675723 0.0061113257
-0.022535032 -0.004497824 -0.026948793 -0.035166122 -0.015170656 -0.014025636 0.0045472393 -0.05300242
-0.054878186 0.02974384 0.06447173 -0.0002530794 0.042336177 0.014763762 -0.119130015 0.0698909
0.049962536 -0.052361432 0.0067996755 -0.09774949 -0.08118665 -0.0640287 0.073523775 -0.009589359
-0.05459112 0.09233271 -0.062882744 -0.014824978 -0.13000736 -0.094628066 0.07489933 -0.06324236
-0.09985386 -0.10668702 0.01693367 -0.061883945 -0.03898747 0.07339658 0.085351355 0.06419916
0.07173103 -0.06828756 -0.098413356 -0.01507691 0.076698296 -0.048782457 0.081711456 -0.032900672
-0.082939126 0.014247687 0.00086453866 -0.0131127285 0.033480998 0.031867035 -0.07328183 -0.056048334
0.009129321 -0.028215507 -0.067881286 -0.0028575608 0.06993552 -0.062346093 -0.050117802 0.008656506
-0.036818113 -0.027164914 -0.12924393 -0.043846235 0.015742661 -0.031044789 0.016982643 0.048965745
-0.028978582 -0.027291583 0.033424888 0.06404681 -0.048775047 -0.019016728 -0.08416815 0.05852715
0.06813593 -0.07708874 -0.054857675 0.014202641 0.019041257 -0.024504736 -0.07202368 0.03642637
-0.024151353 -0.0018193416 -0.0356141 0.044293273 -0.044679105 -0.056527313 -0.10514647 0.008517565
-0.11135269 -0.03487974 -0.04545623 0.06745238 0.0149420295 -0.04872945 0.078822844 -0.047354296
-0.0573652 -0.002980926 0.02320798 0.03971527 0.07062738 -0.009812104 0.017175416 -0.03694002
-0.041563723 -0.05705626 0.046326373 0.07426692 -0.059322223 -0.04452476 -0.06507347 0.060569942
-0.012888214 -0.08474393 0.116941825 -0.081048235 -0.07127069 0.033436272 0.061419398 -0.03499787
-0.14235319 0.06303894 0.078228444 -0.04443629 0.03435446 0.12441304 -0.021756925 0.0057179383
-0.05762996 0.094788946 -0.010158016 -0.08806093 0.11270543 0.06421305 0.064798445 -0.020980245
0.047933836 0.057313655 0.09031903 -0.019603172 0.027982567 0.06400341 0.11461313 -0.05195147
0.07687981 -0.07405173 0.10438677 -0.038203146 0.037176933 -0.14468676 -0.104082294 0.06899309
0.09684172 0.025742168 0.040475614 0.06255145 0.020573387 -0.035214543 0.06569738 -0.0036291634
00000000: e0c1 693d 1cdf 083c 5372 3cbc 91c9 043d
00000010: 1670 f23d 80e7 7a3d 7fae a93c a72b 9b3b
00000020: 82c2 063d 1736 40bd 08b5 f93c dedc d83d
00000030: 1bf7 32bd 57a4 0abd 8488 ee3d 3998 8d3c
00000040: 4b4a 99bd d373 dbbc aa1a 943d d33b 76bc
00000050: 4783 17bd aefc b03d d2c2 b2bd 1ab4 213d
00000060: a554 81bd 1d3e 1f3e a54e 50bc 836e e4bc
00000070: 0983 62bc f0ab 44bd 93de 4cbc 7783 7a3c
00000080: 8373 ccbc 58a3 623d 744e 38bd 644b 31bc
00000090: ee4c f8bd 1d83 d83d fc8b da3c 0a42 9e3d
000000a0: 4baf a8bd 199f 1cbd 56e5 8a39 5974 ce3c
000000b0: 7f7a 36bd 046f b5bc 1f83 f73d 0554 b13a
000000c0: a133 a9bd d62d bc3d 4a99 3d3d 3c1d eebd
000000d0: 2ef0 b83c fb24 05bd 013a 063d d49b 103d
000000e0: d3b7 02be 3aa5 513c 6bba 3d3c d312 efbc
000000f0: e5cd debd 5af1 84bd 99fb 14bd 2037 cbbd
00000100: 965c fcbd 6e0e 5cbd e9dd 65bd 1275 1cbd
00000110: 5d98 4cbd 8a35 3ebd bfea 6c3c ae93 c63d
00000120: 6539 d63c 1699 c0bd 8f7f 91bc adfe 943d
00000130: 5638 513d 84ec 843d 66c3 d3bc 2568 8a3b
00000140: 3093 8abd b5b1 6abd 4d7c ffbd b0f6 bf3d
00000150: 386b 873d f7d9 36bd 9f24 0e3c 8441 c83b
00000160: 639b b8bc 7b62 93bb b7c3 dcbc 5a0a 10bd
00000170: 588e 78bc c8cb 65bc 0201 953b 1119 59bd
00000180: f3c7 60bd 5ba9 f33c c109 843d beaf 84b9
00000190: b368 2d3d b5e3 713c 70fa f3bd f622 8f3d
000001a0: 84a5 4c3d f178 56bd d0cf de3b e230 c8bd
000001b0: 3045 a6bd 7b21 83bd a293 963d b01c 1dbc
000001c0: f09a 5fbd ef18 bd3d abc8 80bd 77e4 72bc
000001d0: a620 05be 5ccc c1bd d264 993d 3685 81bd
000001e0: 2e80 ccbd b97e dabd 7bb8 8a3c 057a 7dbd
000001f0: 53b1 1fbd f250 963d b1cc ae3d d97a 833d
00000200: b8e7 923d 59da 8bbd f18c c9bd 2505 77bc
00000210: ff13 9d3d 1dd0 47bd 5658 a73d dbc2 06bd
00000220: fddb a9bd 216f 693c 35a2 623a c5d6 56bc
00000230: 5f23 093d 0287 023d c914 96bd f092 65bd
00000240: 2693 153c 3524 e7bc 5805 8bbd ea45 3bbb
00000250: 5b3a 8f3d 9e5e 7fbd 5348 4dbd 05d4 0d3c
00000260: 97ce 16bd f488 debc 8558 04be 1c98 33bd
00000270: c1f6 803c a451 febc 2f1f 8b3c 4e90 483d
00000280: 7e64 edbc 9992 dfbc 89e8 083d f92a 833d
00000290: 58c8 47bd f8c8 9bbc 5a60 acbd 2aba 6f3d
000002a0: da8a 8b3d b4e0 9dbd 71b2 60bd 32b2 683c
000002b0: 69fc 9b3c 28be c8bc 2781 93bd d133 153d
000002c0: 0fd9 c5bc f976 eeba 17e0 11bd dd6c 353d
000002d0: 7001 37bd 2f89 67bd 0857 d7bd 428d 0b3c
000002e0: e10c e4bd 0fde 0ebd 5030 3abd 7924 8a3d
000002f0: 6acf 743c 8898 47bd df6d a13d 94f6 41bd
00000300: c6f7 6abd a45b 43bb a91e be3c 7bac 223d
00000310: 16a5 903d f2c2 20bc 75b3 8c3c 6b4e 17bd
00000320: b93e 2abd d3b3 69bd b9c0 3d3d 4119 983d
00000330: dcfb 72bd 985f 36bd 3d45 85bd 3018 783d
00000340: 1629 53bc 3a8e adbd 327f ef3d 9efc a5bd
00000350: 5ef6 91bd 79f4 083d e892 7b3d ed59 0fbd
00000360: 09c5 11be 8f1a 813d 3c36 a03d d402 36bd
00000370: 43b7 0c3d 44cc fe3d 943b b2bc 8b5d bb3b
00000380: 650d 6cbd b520 c23d cf6d 26bc 4a59 b4bd
00000390: 1bd2 e63d 2282 833d 0cb5 843d c3de abbc
000003a0: 4556 443d b9c1 6a3d 2ff9 b83d d596 a0bc
000003b0: b23b e53c 3814 833d 4aba ea3d 11cb 54bd
000003c0: 2973 9d3d 6fa8 97bd bbc8 d53d e77a 1cbd
000003d0: d746 183d c428 14be 1929 d5bd 404c 8d3d
000003e0: f454 c63d 3de1 d23c c2c9 253d fa1a 803d
000003f0: 8589 a83c 203d 10bd 598c 863d 42d7 6dbb

model_12/batch_normalization_100/batchnorm/sub f4 [32]
0.45604953 -0.3248521 -0.29857624 0.10042686 0.62501854 -0.60903895 -0.06739779 0.00028469786
0.17762947 -0.3710062 0.34508973 0.22848828 0.46122977 0.31190693 0.41865405 -0.20150015
0.6306707 -0.20796528 -0.16867588 0.76427364 -0.30916816 0.53072184 -0.19632833 -0.08341926
0.10244633 -0.07968646 -0.31074837 0.318676 0.52555156 -0.25280312 0.27329618 0.1273992
00000000: 537f e93e 0453 a6be fcde 98be 99ac cd3d
00000010: 3701 203f fae9 1bbf da07 8abd 8043 9539
00000020: 80e4 353e 86f4 bdbe 9aaf b03e d5f8 693e
00000030: 4f26 ec3e 44b2 9f3e d359 d63e 0e56 4ebe
00000040: a373 213f daf4 54be 5fb9 2cbe 70a7 433f
00000050: 4a4b 9ebe 63dd 073f 4b0a 49be b8d7 aabd
00000060: 62cf d13d a832 a3bd 691a 9fbe 8029 a33e
00000070: 8c8a 063f 696f 81be 7aed 8b3e f074 023e

model_12/batch_normalization_101/batchnorm/mul_1;model_12/conv1d_101/conv1d/Squeeze;model_12/batch_normalization_101/batchnorm/mul;model_12/conv1d_101/conv1d;model_12/conv1d_103/conv1d f4 [72, 1, 3, 32]
0.016607381 0.018433316 0.07627142 0.004232611 0.05832315 -0.0336882 -0.07141491 0.085547656
-0.022813026 -0.060289968 -0.0874985 0.015771972 0.16677964 0.052425265 0.15471944 0.19628516
-0.14611657 -0.042822365 0.09504967 -0.09328229 0.13984473 0.0033335155 0.050322022 0.06314215
0.04567929 -0.10263914 -0.05724212 -0.14970392 0.15117615 -0.10243058 -0.11262034 -0.15492956
0.024300378 -0.1755904 0.00074528845 -0.21150745 -0.18016665 0.12774393 -0.07997448 0.017643798
-0.12832364 -0.056676436 -0.09205748 -0.03613832 -0.009363177 0.09241763 0.049107336 0.080287285
0.09586972 -0.081371814 0.051522363 0.01887274 -0.0036781144 -0.01813772 0.043403175 -0.13331327
0.17603023 -0.0318156 0.26890475 0.17810911 -0.0912613 0.17643727 0.08294028 0.13145147
0.18857485 0.03983538 0.036070555 0.14524056 0.17382963 0.02643145 0.005287968 -0.077112876
-0.30031854 0.00015043083 -0.024328701 -0.0154318875 0.015836542 0.1362865 0.16652259 -0.13380529
0.13546427 -0.0437379 0.0923629 0.08499336 0.03944678 -0.3081093 -0.08568209 -0.17117359
0.061588433 -0.21534888 -0.21237691 -0.08136043 -0.07049198 0.014839376 0.12690145 -0.22517209
-0.09323898 0.0518758 -0.012941229 -0.21913671 -0.18366198 -0.09312997 0.058891945 -0.2467509
0.10578367 0.1081769 0.06809247 0.076891094 0.11413886 0.11263558 0.15874976 -0.0153054865
0.013371573 0.16351779 0.10176907 -0.21990703 0.27068388 -0.061077066 0.16645582 -0.063520014
-0.2498498 -0.010137334 -0.0692536 0.16623142 0.055383306 0.01053294 0.22352952 0.034949645
-0.13637902 0.17985097 -0.11609352 0.0851762 -0.0051309858 0.13672249 -0.18796042 -0.11274547
0.0027774237 0.060511082 -0.036675338 0.121679075 -0.042379618 0.052868444 0.1509417 0.16036892
0.2309032 -0.1016154 0.14378639 0.09532261 -0.035508614 -0.15043722 -0.2199045 0.10421544
-0.03867688 0.048965737 0.019928195 0.32585633 -0.059962135 -0.17659082 0.22923745 -0.15518945
0.0695316 -0.035687692 -0.03346986 0.1938439 -0.14204325 -0.06709823 0.03983183 -0.120750144
-0.16873743 0.032549337 0.03696543 0.22150032 0.059258502 0.028817853 0.09321974 -2.9487384e-05
-0.08470892 0.094077095 -0.12312536 0.034948558 -0.058604646 0.06789131 0.11459844 -0.10325759
-0.13962695 0.040898316 -0.22936197 -0.00916983 0.06250893 -0.20338215 -0.045528837 -0.12358557
-0.31964365 0.026738496 -0.22714813 -0.02483311 -0.09473293 0.07909272 -0.046526864 -0.08341414
-0.024812989 -0.21307306 0.30349562 -0.16720642 -0.21248019 0.0345509 0.06291255 0.13654242
-0.0098606665 0.032261927 -0.23286101 -0.092723966 0.03287829 -0.121088386 -0.07743166 -0.07323901
0.10115821 -0.08505004 -0.09748769 0.24840933 0.03337522 -0.07803954 -0.08223244 0.13162535
-0.15377356 0.093781024 -0.121902384 -0.18337736 -0.16005585 0.16374038 -0.1646914 0.1369535
0.13901292 0.02617929 0.048047822 0.06084335 -0.07318302 0.030369587 -0.12627268 -0.22665966
-0.08224939 -0.007089699 0.035097875 -0.100574575 0.1502829 0.24427548 0.18198304 -0.0078047975
0.05820116 0.049574766 -0.004066865 -0.06545197 -0.10672764 0.057460908 0.104368314 0.1366388
00000000: 340c 883c 7701 973c 3134 9c3d b7b1 8a3b
00000010: 41e4 6e3d a3fc 09bd fb41 92bd 9c33 af3d
00000020: 62e2 babc 9df2 76bd 6a32 b3bd 3934 813c
00000030: 48c8 2a3e e0bb 563d c66e 1e3e fafe 483e
00000040: 959f 15be 8166 2fbd 67a9 c23d c90a bfbd
00000050: 7533 0f3e 1c77 5a3b 771e 4e3d ac50 813d
00000060: 351a 3b3d 7834 d2bd b776 6abd fc4b 19be
00000070: eccd 1a3e 20c7 d1bd 7ea5 e6bd dba5 1ebe
00000080: 9611 c73c f8cd 33be 765f 433a 6995 58be
00000090: 9b7d 38be 4ecf 023e a9c9 a3bd ba89 903c
000000a0: 4667 03be 8d25 68bd a288 bcbd c605 14bd
000000b0: 0368 19bc 7445 bd3d c624 493d a96d a43d
000000c0: 5857 c43d 44a6 a6bd 1d09 533d 019b 9a3c
000000d0: 850c 71bb 8e95 94bc 87c7 313d 4683 08be
000000e0: 4541 343e 1351 02bd e2ad 893e 3c62 363e
000000f0: 34e7 babd f9ab 343e 98dc a93d 379b 063e
00000100: c419 413e 6c2a 233d b8be 133d f1b9 143e
00000110: 6500 323e c586 d83c b146 ad3b 5bed 9dbd
00000120: 5ac3 99be f8bc 1d39 fc4c c7bc 07d6 7cbc
00000130: a3bb 813c b08e 0b3e e684 2a3e 4104 09be
00000140: 25b7 0a3e 8326 33bd c328 bd3d 0011 ae3d
00000150: f292 213d 81c0 9dbe 177a afbd 2148 2fbe
00000160: 2744 7c3d 6b84 5cbe 5579 59be 4ca0 a6bd
00000170: 195e 90bd db20 733c 74f2 013e 8393 66be
00000180: 14f4 bebd b87b 543d 7307 54bc 6065 60be
00000190: e311 3cbe edba bebd ae38 713d 45ac 7cbe
000001a0: 1ca5 d83d da8b dd3d 1174 8b3d 1479 9d3d
000001b0: a2c1 e93d 7cad e63d 4c8f 223e ddc3 7abc
000001c0: 7114 5b3c 3571 273e 4d6c d03d 4f2f 61be
000001d0: 1497 8a3e f22b 7abd 6573 2a3e c816 82bd
000001e0: a0d8 7fbe 0f17 26bc d5d4 8dbd 9238 2a3e
000001f0: 9bd9 623d 5a92 2c3c ece4 643e 5c27 0f3d
00000200: f1a6 0bbe da2a 383e 70c2 edbd dc70 ae3d
00000210: d421 a8bb fb00 0c3e b278 40be 19e7 e6bd
00000220: 7005 363b 78da 773d e138 16bd e132 f93d
00000230: 4096 2dbd 958c 583d 7690 1a3e c037 243e
00000240: e371 6c3e bc1b d0bd bd3c 133e 8038 c33d
00000250: 7b71 11bd 370c 1abe a52e 61be e86e d53d
00000260: a66b 1ebd 4c90 483d 7440 a33c a4d6 a63e
00000270: db9a 75bd 39d4 34be 39bd 6a3e fce9 1ebe
00000280: 9566 8e3d 422d 12bd b117 09bd 047f 463e
00000290: c973 11be cc6a 89bd b326 233d da4b f7bd
000002a0: 81c9 2cbe 7452 053d 1069 173d fbd0 623e
000002b0: 0bb9 723d 6b13 ec3c fee9 be3d ad5b f7b7
000002c0: df7b adbd 7eab c03d 2629 fcbd 3826 0f3d
000002d0: 6d0b 70bd 990a 8b3d 96b2 ea3d b778 d3bd
000002e0: 5efa 0ebe fe84 273d dddd 6abe 0e3d 16bc
000002f0: af04 803d 6943 50be 727c 3abd 6e1a fdbd
00000300: 55a8 a3be b10a db3c 8599 68be ce6e cbbc
00000310: 5703 c2bd 5dfb a13d f492 3ebd 08d5 aabd
00000320: 9c44 cbbc d32f 5abe c763 9b3e 2938 2bbe
00000330: 6894 59be 3f85 0d3d 4cd8 803d c7d1 0b3e
00000340: a28e 21bc 1525 043d 1e73 6ebe 10e6 bdbd
00000350: 63ab 063d 30fd f7bd 7d94 9ebd 56fe 95bd
00000360: 092c cf3d b72e aebd a0a7 c7bd 045f 7e3e
00000370: 74b4 083d 32d3 9fbd 7b69 a8bd ccc8 063e
00000380: d176 1dbe 4410 c03d f5a7 f9bd 46c7 3bbe
00000390: aee5 23be 8fab 273e dda4 28be 8a3d 0c3e
000003a0: 6759 0e3e f375 d63c cbcd 443d e036 793d
000003b0: fbe0 95bd a4c9 f83c a04d 01be 7819 68be
000003c0: 5e72 a8bd b550 e8bb cac2 0f3d 0bfa cdbd
000003d0: c3e3 193e 5a23 7a3e c359 3a3e 63bf ffbb
000003e0: 5764 6e3d e90e 4b3d 5643 85bb af0b 86bd
000003f0: 0594 dabd 215c 6b3d 0ebf d53d 0beb 0b3e

model_12/batch_normalization_101/batchnorm/sub f4 [72]
0.079617105 -0.2091513 0.4684621 0.75738096 0.42114818 -0.4542984 -0.7245737 0.51621443
0.060022693 0.009050889 -0.34375617 0.6511993 0.3621494 0.037460197 -0.0513584 0.37795427
-0.0025111125 -0.41480014 -0.12579146 -0.4469843 0.57139903 0.102499306 0.5757004 0.34547752
-0.66997105 0.39179692 -0.5823433 0.7088542 0.46570826 0.7759995 0.51538086 0.26976734
-0.0057414416 -0.9053422 0.026381409 -0.09102735 0.52829593 0.4234559 0.32454458 0.07209789
0.86754143 0.2706327 0.67028844 0.4146399 -0.29232126 0.5827521 0.14148071 0.34663785
0.17873566 -0.3906676 0.13974416 0.5676624 0.48813874 0.27769527 -0.5580996 0.50477654
-0.18085381 0.8016662 -0.20284453 -0.13849443 0.58438516 -0.5908717 -0.31125963 0.4535817
0.26119596 0.2984271 -0.11972007 0.2509755 0.2857238 -0.085563816 -0.7041951 0.6652927
00000000: 4b0e a33d c22b 56be 44da ef3e b8e3 413f
00000010: bca0 d73e cd99 e8be a97d 39bf a126 043f
00000020: 5bda 753d 2e4a 143c cf00 b0be ffb4 263f
00000030: a56b b93e dd6f 193d 305d 52bd 3983 c13e
00000040: 7a91 24bb af60 d4be 7acf 00be 20db e4be
00000050: 3547 123f 28eb d13d 1a61 133f 6ee2 b03e
00000060: 3983 2bbf 9b99 c83e 7314 15bf 7877 353f
00000070: 5071 ee3e e7a7 463f 00f0 033f f21e 8a3e
00000080: b422 bcbb 82c4 67bf d31d d83c 8c6c babd
00000090: 673e 073f 36cf d83e b52a a63e 0fa8 933d
000000a0: 3217 5e3f 5f90 8a3e 0698 2b3f ae4b d43e
000000b0: 22ab 95be 3e2f 153f 52e0 103e 847a b13e
000000c0: 7b06 373e 9505 c8be 1819 0f3e 5352 113f
000000d0: 52ed f93e 132e 8e3e 9edf 0ebf 0939 013f
000000e0: be31 39be ff39 4d3f 7ab6 4fbe 7cd1 0dbe
000000f0: 449a 153f 5e43 17bf 6c5d 9fbe dc3b e83e
00000100: 7abb 853e 70cb 983e cc2f f5bd dc7f 803e
00000110: 644a 923e 153c afbd 2146 34bf 9f50 2a3f

model_12/batch_normalization_102/batchnorm/mul_1;model_12/conv1d_102/conv1d/Squeeze;model_12/batch_normalization_102/batchnorm/mul;model_12/conv1d_102/conv1d f4 [32, 1, 3, 72]
-0.04736147 0.08255899 0.059204295 0.09412158 -0.0025785554 -0.053602427 -0.06520166 0.06675435
-0.02735552 0.006980188 -0.081741825 0.0709219 -0.051943704 -0.06153839 -0.09094264 0.0093351845
-0.031102559 -0.07098885 -0.0052084653 -0.048093323 0.1260761 0.09162448 0.0062094075 -0.12241039
-0.06861851 -0.039423857 0.0051103295 0.04681923 0.034381974 -0.030766772 0.0004052512 0.02705035
-0.05789019 -0.02568943 -0.055063594 0.041078467 0.10338617 0.026366444 -0.033492673 0.028583534
0.04633803 0.07087787 0.09533068 0.07509053 -0.01650483 0.095606014 0.015404694 0.052211255
0.041269377 -0.024100408 -0.017275603 -0.08887877 0.06374399 -0.10052387 -0.0641373 -0.04177247
0.047802188 0.11922651 0.021572277 -0.1069608 0.032367405 -0.040610075 0.04910846 -0.006700092
-0.029312102 -0.06770784 -0.05917985 0.073623285 -0.0118838735 -0.12426622 -0.03502362 -0.027065229
0.059671514 0.0070215818 0.034494117 0.10424088 0.021785842 -0.016727973 0.044773888 0.09220445
-0.015547539 0.0013097463 -0.038656637 0.082322896 -0.016308565 0.0038140751 -0.07727124 0.028097868
0.017443748 0.00632711 -0.0019141282 0.026705319 0.08266687 0.06895128 0.018955616 -0.046095464
0.030306483 -0.041257 -0.049860884 0.019432139 0.0086552035 0.066688515 0.020339534 -0.024604615
-0.010133912 0.040008694 -0.038552806 -0.06840064 0.0111037865 0.09772183 -0.0007504377 -0.00086130004
0.053534195 -0.015775353 0.030343726 0.021513548 0.039350003 0.08934987 0.045405783 -0.03492836
-0.03967193 -0.01579533 0.025103003 -0.061370447 0.0095102005 0.029458927 -0.02433497 0.021716146
0.0040533054 0.0667716 -0.044317063 0.035875928 0.08728559 0.047028795 -0.07434838 0.0024374516
0.0024315317 -0.032378737 -0.0645195 0.032894243 -0.041776706 -0.09446833 0.026933055 -0.015521674
0.044184152 0.03872305 -0.0053623994 -0.12943779 0.03983917 0.0076518003 0.05757253 0.084781125
-0.037808653 -0.017667925 -0.029130008 -0.035901945 -0.0033004505 0.088366516 -0.00070053723 -0.043679394
-0.085228026 -0.049047288 -0.00578314 0.023466943 0.09373838 0.032113962 0.07444104 -0.09063203
-0.06913101 -0.011366911 0.042001676 0.05550279 0.07227365 -0.09978128 0.087710395 0.11266934
-0.016858205 -0.027939485 0.005117126 0.011006953 0.07530347 -0.022371259 -0.060883462 0.02512819
-0.00058996025 -0.124535196 0.045980968 0.04316286 -0.0066753207 -0.0075838696 -0.060881894 0.0847167
0.06693127 -0.030188901 -0.03858108 0.028967584 -0.004266769 0.048524585 -0.036255788 -0.022086486
-0.05253581 0.09385356 -0.048998334 -0.09560981 -0.105021104 -0.015629277 -0.014214563 0.07416274
0.04222457 0.011309747 0.03353161 -0.08615195 -0.03252709 -0.00016122311 0.0042891107 -0.021237014
0.045103773 -0.0068558045 -0.021272128 -0.0031195676 0.05093214 -0.07725957 0.057440747 -0.072121814
0.044544455 0.011391425 0.016938128 -0.027085193 0.1043536 -0.057973042 -0.030506438 -0.047204893
-0.019715521 0.048864096 -0.025642084 0.06560278 -0.035394594 -0.02960202 -0.028469108 0.084172435
-0.011201293 0.083453454 -0.013970119 -0.18657836 0.009007998 -0.05600825 0.040456973 -0.114378326
0.00929061 -0.055688646 0.10559832 0.07516303 -0.019410843 0.09565384 0.07282089 0.12716636
00000000: 1afe 41bd b014 a93d 3480 723d d1c2 c03d
00000010: fbfc 28bb 388e 5bbd 7388 85bd 81b6 883d
00000020: af18 e0bc 10ba e43b 4268 a7bd 803f 913d
00000030: ecc2 54bd ae0f 7cbd 2340 babd 9af2 183c
00000040: cbca febc 9a62 91bd c6ab aabb 81fd 44bd
00000050: 181a 013e 9ea5 bb3d 4978 cb3b 4cb2 fabd
00000060: dd87 8cbd e97a 21bd 8d74 a73b 85c5 3f3d
00000070: 1dd4 0c3d 990a fcbc e577 d439 b298 dd3c
00000080: 441e 6dbd a472 d2bc 5d8a 61bd e541 283d
00000090: 21bc d33d 71fe d73c 9d2f 09bd 0428 ea3c
000000a0: f2cc 3d3d 6b28 913d bb3c c33d 10c9 993d
000000b0: 2335 87bc 16cd c33d f863 7c3c 78db 553d
000000c0: 140a 293d 386e c5bc 9185 8dbc 1306 b6bd
000000d0: 368c 823d 75df cdbd 6b5a 83bd 9c19 2bbd
000000e0: 3acc 433d 072d f43d 58b8 b03c 440e dbbd
000000f0: af93 043d c056 26bd f425 493d 728c dbbb
00000100: ef1f f0bc 68aa 8abd 9266 72bd cec7 963d
00000110: 94b4 42bc 4a7f febd ed74 0fbd e6b7 ddbc
00000120: 1e6a 743d 4c15 e63b b449 0d3d 3e7c d53d
00000130: 3978 b23c 1a09 89bc d364 373d b0d5 bc3d
00000140: 1bbb 7ebc cbab ab3a 6c56 1ebd e898 a83d
00000150: 8a99 85bc 90f5 793b 6240 9ebd 802d e63c
00000160: 31e6 8e3c a553 cf3b 7ce3 faba 1dc5 da3c
00000170: 3f4d a93d 5436 8d3d cf48 9b3c 99ce 3cbd
00000180: 4d45 f83c 1afd 28bd ed3a 4cbd 2630 9f3c
00000190: 8ece 0d3c fd93 883d 189f a63c 9e8f c9bc
000001a0: b508 26bc 28e0 233d 8ce9 1dbd a215 8cbd
000001b0: a8ec 353c 6222 c83d 06b9 44ba dec8 61ba
000001c0: ac46 5b3d 503b 81bc 6893 f83c 2e3d b03c
000001d0: 782d 213d 11fd b63d 6afb 393d 0a11 0fbd
000001e0: 097f 22bd 3565 81bc d0a4 cd3c 945f 7bbd
000001f0: acd0 1b3c d953 f13c 225a c7bc 0fe6 b13c
00000200: 97d1 843b 8cbf 883d cf85 35bd a3f2 123d
00000210: cac2 b23d 44a1 403d f743 98bd a7bd 1f3b
00000220: 555a 1f3b 919f 04bd cd22 84bd 1dbc 063d
00000230: 0d1e 2bbd 9d78 c1bd b6a2 dc3c 9f4e 7ebc
00000240: 71fa 343d 109c 1e3d 11b7 afbb 578b 04be
00000250: 662e 233d f4bb fa3b 2cd1 6b3d baa1 ad3d
00000260: 3fdd 1abd 53bc 90bc 0ea2 eebc eb0d 13bd
00000270: 5f4c 58bb 81f9 b43d 42a4 37ba 2ae9 32bd
00000280: 088c aebd cfe5 48bd 7f80 bdbb bf3d c03c
00000290: e8f9 bf3d ee89 033d 8b74 983d 499d b9bd
000002a0: 8f94 8dbd 483c 3abc f309 2c3d e556 633d
000002b0: 3504 943d 215a ccbd 82a1 b33d 2fbf e63d
000002c0: 381a 8abc 59e1 e4bc 90ad a73b 8256 343c
000002d0: b538 9a3d ee43 b7bc f060 79bd a2d9 cd3c
000002e0: 90a7 1aba 4f0c ffbd 8a56 3c3d 8acb 303d
000002f0: a6bc dabb 1c82 f8bb 4b5f 79bd f37f ad3d
00000300: 4313 893d b74e f7bc 3207 1ebd 6d4d ed3c
00000310: 41d0 8bbb b7c1 463d f380 14bd b8ee b4bc
00000320: ca2f 57bd 4c36 c03d 7ab2 48bd 13cf c3bd
00000330: 4e15 d7bd f808 80bc 33e4 68bc a2e2 973d
00000340: acf3 2c3d 844c 393c 7158 093d 6f70 b0bd
00000350: 203b 05bd 000e 29b9 ab8b 8c3b 3ff9 adbc
00000360: bcbe 383d a8a6 e0bb e342 aebc a971 4cbb
00000370: 389e 503d 443a 9ebd fd46 6b3d 9ab4 93bd
00000380: 3f74 363d 19a3 3a3c d4c1 8a3c c4e1 ddbc
00000390: 57b7 d53d 2475 6dbd a3e8 f9bc eb59 41bd
000003a0: 7282 a1bc b825 483d 590f d2bc c05a 863d
000003b0: ecf9 10bd ef7f f2bc 0c38 e9bc 9962 ac3d
000003c0: a185 37bc a5e9 aa3d ede2 64bc 660e 3fbe
000003d0: 4896 133c e868 65bd 36b6 253d 2f3f eabd
000003e0: a537 183c c719 64bd ef43 d83d 13ef 993d
000003f0: 7d03 9fbc 29e6 c33d 1e23 953d e637 023e

model_12/batch_normalization_102/batchnorm/sub f4 [32]
-0.28053632 0.34423766 0.49811867 0.5060683 0.028259996 0.14183778 0.16057082 0.30991793
0.44695663 0.26987708 0.13463163 0.29849306 0.2632065 -0.46675935 0.091470644 0.4222477
-0.4122229 0.3620102 0.351175 0.0055926368 -0.09675573 0.5644386 0.27628428 -0.016630774
0.28861207 -0.16133617 -0.4076092 0.479374 0.34697655 0.7016585 0.2446236 0.48164862
00000000: 75a2 8fbe eb3f b03e 6909 ff3e b18d 013f
00000010: 8281 e73c ec3d 113e ad6c 243e 90ad 9e3e
00000020: 80d7 e43e 542d 8a3e e0dc 093e 15d4 983e
00000030: 01c3 863e 15fb eebe f654 bb3d da30 d83e
00000040: e10e d3be 6759 b93e 36cd b33e 7042 b73b
00000050: de27 c6bd 0c7f 103f 2275 8d3e 433d 88bc
00000060: f6c4 933e 4f35 25be 27b2 d0be 8270 f53e
00000070: e9a6 b13e e49f 333f 9c7e 7a3e a69a f63e

model_12/batch_normalization_103/batchnorm/mul_1;model_12/conv1d_103/conv1d/Squeeze;model_12/batch_normalization_103/batchnorm/mul;model_12/conv1d_103/conv1d f4 [72, 1, 3, 32]
0.0036281052 -0.090308584 -0.17252772 -0.03497787 -0.0052054925 -0.005355113 0.09097647 0.09948795
-0.059238944 -0.13336651 -0.13516347 0.0032603827 -0.048541743 -0.112206616 0.011413194 -0.02439698
0.16248257 0.13923779 0.10580769 -0.2306269 -0.09191987 -0.01034772 -0.027093878 0.2731315
-0.0756469 0.08060717 0.11548078 -0.06809606 -0.036075845 0.015506472 -0.049335018 -0.23386371
0.20065911 -0.1520452 0.11560698 0.22882171 0.15462619 0.14398272 0.24659358 0.26753166
-0.18647979 0.26286837 0.05816772 -0.13912779 0.063234776 -0.006254022 0.13996108 -0.12905258
-0.15662132 0.10679169 -0.1745252 0.09543343 0.056257732 0.14327346 0.053042017 -0.07311712
0.15180461 0.15821093 -0.18110399 0.24844506 -0.047273714 0.12520015 -0.04243907 0.11341991
0.19496866 0.13237749 -0.16353388 -0.04905997 0.033681985 0.14336245 0.07596483 -0.10400633
-0.046378672 0.14797905 0.1475372 0.119534515 0.094631314 -0.051576596 -0.05188133 -0.06617124
-0.123468764 -0.24720266 -0.05901847 -0.16379234 -0.15048675 -0.24752975 -0.05725499 0.042734455
0.03943077 0.11286084 -0.07773791 0.062383678 0.046055753 0.15061751 0.015687007 0.15531994
-0.031428818 -0.15885006 -0.12380174 -0.082345255 -0.16834565 0.110494934 -0.23366497 -0.0018457974
-0.01371767 -0.013916671 -0.0066626486 -0.07652901 -0.0967338 0.03342884 -0.016621841 -0.03146319
0.1539599 0.158895 -0.029670112 0.031833272 -0.029504046 -0.048666477 -0.13607505 -0.017599342
-0.15175776 0.038731616 0.08917275 0.3013732 -0.16667783 -0.027300406 -0.07871198 -0.0639493
0.04090285 -0.076643184 -0.045087855 -0.058514964 -0.20598632 -0.0030200623 -0.20869371 0.049367595
0.14043456 0.114418805 0.050982285 0.08113295 0.10109207 0.0043052174 0.15757595 -0.0037617697
-0.19556922 -0.016120484 -0.08281355 0.08242273 -0.16024028 -0.18945317 0.16682482 -0.122266546
0.09215787 -0.19336702 0.08084135 -0.1474844 0.13673033 -0.0561084 0.02343557 0.039690245
-0.1867298 -0.06743663 0.048921134 -0.14192961 -0.13257053 0.018249026 -0.033176143 -0.109433144
0.107338354 0.09414242 -0.11388223 -0.18298502 -0.107033245 -0.22237943 -0.1478765 -0.007573305
0.08007724 0.050474856 0.12261153 0.0051954654 -0.06651188 -0.011761928 0.06485044 -0.17075592
0.03711135 -0.2505073 0.05078317 -0.03865089 -0.061398156 -0.040262654 0.09780423 0.003373285
-0.20540804 -0.19971326 -0.062561885 0.09046741 0.11517472 0.018189486 -0.08716206 -0.1638288
0.063323654 0.10201581 0.057225306 0.0038732064 0.02545513 -0.051464587 0.13007456 -0.13993673
0.093525775 -0.05204786 -0.027249623 0.098637894 0.033164646 -0.092525475 0.1348125 0.1651888
-0.019244885 -0.22939989 0.22988243 -0.028152412 -0.07379073 -0.060734216 0.16434027 0.18511689
-0.083069205 -0.14159302 0.06755223 0.046369184 0.06486104 -0.3225405 0.0923869 -0.23736338
-0.0959707 -0.023232382 -0.119838946 0.02192123 0.1307669 0.085641585 -0.03550771 -0.1876346
0.165487 0.04268718 0.09629312 -0.11326022 -0.0290598 0.030604627 -0.06749455 0.08193722
0.039280847 -0.014257031 -0.059696574 -0.006523135 0.08987343 0.050464425 0.18022043 0.12784728
00000000: 81c5 6d3b b5f3 b8bd 1bab 30be f444 0fbd
00000010: d692 aabb f279 afbb df51 ba3d 57c0 cb3d
00000020: 89a4 72bd 3b91 08be 4b68 0abe 25ac 553b
00000030: b5d3 46bd 95cc e5bd 68fe 3a3c 2ddc c7bc
00000040: d561 263e 5a94 0e3e b4b1 d83d 7529 6cbe
00000050: 7c40 bcbd 7c89 29bc fbf3 ddbc e4d7 8b3e
00000060: c3ec 9abd 5f15 a53d 3081 ec3d f275 8bbd
00000070: 44c4 13bd dc0e 7e3c 8413 4abd f879 6fbe
00000080: 9579 4d3e bdb1 1bbe 5ac3 ec3d 3d50 6a3e
00000090: 5456 1e3e 3570 133e 0783 7c3e e9f9 883e
000000a0: 8ff4 3ebe af96 863e 4641 6e3d 8477 0ebe
000000b0: 3c81 813d 8aee ccbb f551 0f3e 5c26 04be
000000c0: 5761 20be 9ab5 da3d bcb6 32be 9a72 c33d
000000d0: 826e 663d 47b6 123e 9642 593d 6ebe 95bd
000000e0: ab72 1b3e 0c02 223e 5373 39be 6268 7e3e
000000f0: 15a2 41bd 7834 003e 97d4 2dbd b348 e83d
00000100: dda5 473e f78d 073e 6d75 27be 1bf3 48bd
00000110: 1ff6 093d 9bcd 123e 7393 9b3d 4501 d5bd
00000120: 90f7 3dbd d287 173e fe13 173e 83ce f43d
00000130: 10ce c13d fb41 53bd 8481 54bd c984 87bd
00000140: 31dd fcbd b222 7dbe 5abd 71bd 2eb9 27be
00000150: 3319 1abe 7078 7dbe 3584 6abd 530a 2f3d
00000160: 2982 213d 9623 e73d 0e35 9fbd 0786 7f3d
00000170: f5a4 3c3d 7a3b 1a3e 0a82 803c 310c 1f3e
00000180: 81bb 00bd 97a9 22be c48b fdbd a1a4 a8bd
00000190: cd62 2cbe 2b4b e23d df45 6fbe afee f1ba
000001a0: 14c0 60bc c002 64bc 5952 dabb 3ebb 9cbd
000001b0: 5f1c c6bd aeec 083d 872a 88bc 8cdf 00bd
000001c0: aaa7 1d3e 5fb5 223e bc0e f3bc 9b63 023d
000001d0: 78b2 f1bc 8056 47bd 4257 0bbe 7f2c 90bc
000001e0: 6366 1bbe 0ba5 1e3d 34a0 b63d 974d 9a3e
000001f0: 98ad 2abe 1aa5 dfbc bf33 a1bd daf7 82bd
00000200: bf89 273d 1af7 9cbd 0bae 38bd 63ad 6fbd
00000210: 14ee 52be 3dec 45bb ceb3 55be ad35 4a3d
00000220: 14ce 0f3e 6854 ea3d cdd2 503d 0829 a63d
00000230: 5c09 cf3d c812 8d3b 975b 213e 0688 76bb
00000240: 4c43 48be 1b0f 84bc 279a a9bd 40cd a83d
00000250: 0716 24be 0300 42be 20d4 2a3e e266 fabd
00000260: 44bd bc3d 0102 46be 2690 a53d 2706 17be
00000270: 0903 0c3e ecd1 65bd f4fb bf3c 3d92 223d
00000280: 1936 3fbe 371c 8abd 8761 483d ff55 11be
00000290: 92c0 07be fb7e 953c b5e3 07bd 7c1e e0bd
000002a0: 36d4 db3d becd c03d 163b e9bd 6d60 3bbe
000002b0: 3f34 dbbd 6fb7 63be f06c 17be 7d29 f8bb
000002c0: 89ff a33d b9be 4e3d c11b fb3d b93e aa3b
000002d0: 6137 88bd 1ab5 40bc 4fd0 843d a4da 2ebe
000002e0: 1202 183d 7e42 80be 0302 503d 6550 1ebd
000002f0: a27c 7bbd 74ea 24bd 964d c83d 5512 5d3b
00000300: 7c56 52be a281 4cbe 7220 80bd fa46 b93d
00000310: b9e0 eb3d 1e02 953c 0682 b2bd bdc2 27be
00000320: d5af 813d aaed d03d 1565 6a3d 9fd5 7d3b
00000330: 4787 d03c 88cc 52bd 4432 053e 934b 0fbe
00000340: 718a bf3d 2330 55bd 9a3a dfbc aa02 ca3d
00000350: a7d7 073d ff7d bdbd 4a0c 0a3e 4127 293e
00000360: 73a7 9dbc cee7 6abe 4d66 6b3e e39f e6bc
00000370: 981f 97bd 71c4 78bd d148 283e 488f 3d3e
00000380: 3020 aabd c3fd 10be d358 8a3d 9ded 3d3d
00000390: ddd5 843d 0724 a5be 5835 bd3d 630f 73be
000003a0: 498c c4bd d651 bebc 1f6e f5bd 2794 b33c
000003b0: c2e7 053e db64 af3d 8870 11bd 4923 40be
000003c0: 6d75 293e c1d8 2e3d 5435 c53d f9f4 e7bd
000003d0: d10e eebc 8eb6 fa3c 953a 8abd b4ce a73d
000003e0: f4e4 203d 5296 69bc 6584 74bd 06c0 d5bb
000003f0: 900f b83d c9b3 4e3d b48b 383e 66ea 023e

model_12/batch_normalization_103/batchnorm/sub f4 [72]
-0.44246304 0.87678665 -0.13059175 0.20479545 0.40933645 -0.4730764 0.54253995 0.83517355
0.7281381 -0.15564892 0.6214432 -0.27768725 0.48963332 0.21896188 -0.289405 0.5146728
0.8311874 0.70535773 0.3262484 0.47888732 -0.050188966 0.15072522 -0.011841238 -0.20215952
0.80305773 0.7082586 0.16261798 -0.52575654 0.004204184 0.4382348 0.18452017 0.13079664
-0.5459101 0.15145907 -0.12622827 0.9186126 0.48506725 0.13915718 0.52669513 0.31829047
-0.17269446 -0.43302622 -0.1069103 -0.15919144 0.18584278 -0.23332313 0.7469983 0.41289625
0.7039076 0.5382824 0.7246233 -0.16306162 -0.07168125 -0.03047074 0.020314794 0.04367096
0.8094812 -0.27016103 -0.2580194 -0.462996 0.26139975 0.010288848 -0.13692021 -0.31684485
-0.53630036 -0.28825462 0.5648011 0.4294855 -0.487787 0.48424533 0.24863648 0.012352977
00000000: 848a e2be 1775 603f d8b9 05be e6b5 513e
00000010: 8c94 d13e 1237 f2be e6e3 0a3f efcd 553f
00000020: 4267 3a3f 6e62 1fbe e716 1f3f 062d 8ebe
00000030: 38b1 fa3e 8b37 603e e42c 94be 99c1 033f
00000040: b3c8 543f 5392 343f 080a a73e b830 f53e
00000050: f292 4dbd b657 1a3e c001 42bc e802 4fbe
00000060: 3195 4d3f 7050 353f 5485 263e fb97 06bf
00000070: 40c3 893b 5060 e03e dbf2 3c3e 8eef 053e
00000080: c4c0 0bbf 1618 1b3e fc41 01be 322a 6b3f
00000090: bc5a f83e 387f 0e3e 7ed5 063f f8f6 a23e
000000a0: d1d6 30be 9db5 ddbe caf3 dabd 1503 23be
000000b0: 924d 3e3e 42ec 6ebe 483b 3f3f 2367 d33e
000000c0: 4a33 343f e0cc 093f ea80 393f a0f9 26be
000000d0: 9fcd 92bd c69d f9bc 366b a63c 52e0 323d
000000e0: 293a 4f3f 8c52 8abe 1e1b 84be d00d edbe
000000f0: 30d6 853e 8e92 283c d034 0cbe 7d39 a2be
00000100: fb4a 09bf 1c96 93be ce96 103f 86e5 db3e
00000110: 38bf f9be 01ef f73e 909a 7e3e 2464 4a3c

model_12/batch_normalization_96/batchnorm/mul_1;model_12/conv1d_96/conv1d/Squeeze;model_12/batch_normalization_96/batchnorm/mul;model_12/conv1d_96/conv1d;model_12/conv1d_102/conv1d f4 [32, 1, 3, 6]
-0.12915136 -0.16667372 -0.0260865 0.15123549 0.0862198 0.1108237 -0.024693426 0.12537034
-0.15127918 -0.11101082 0.1904206 -0.19348855 -0.088555515 0.0017725417 0.1357079 0.07617251
0.1491552 0.1777371 -0.05336667 -0.19766895 0.1080171 -0.026434667 0.0306863 -0.1514914
-0.116647504 -0.12310365 -0.19458778 0.12085843 0.19426998 0.08879801 0.0031874934 0.1658181
0.007988022 -0.0783194 0.08748362 0.1836782 0.08293476 0.00046060508 0.23882356 0.10675097
-0.34787342 -0.099555045 -0.09389082 -0.13923018 -0.021321407 -0.09373899 0.19250093 -0.15942968
0.0037249415 0.2466135 -0.100598894 -0.1260012 0.011412249 -0.02893136 -0.066626295 -0.048159666
-0.1484958 0.16637059 -0.16943865 -0.29514828 -0.06307053 -0.08675868 0.09476535 0.11274271
0.028317446 0.012165244 0.017512774 -0.08190429 -0.17792079 -0.2531134 0.18202086 -0.13003118
-0.1656929 0.14287892 0.1070792 0.03343995 -0.073961355 -0.0995232 0.007769412 -0.07687905
-0.1866569 -0.1786611 0.15036234 0.015013794 -0.1860526 0.038196817 -0.024538882 0.1452569
0.24524696 0.057732824 -0.1111687 0.00936491 -0.15876839 0.014106391 0.26849067 -0.014659092
0.21880935 -0.06258737 -0.010702046 0.26372167 -0.15659866 -0.10319897 0.11270426 -0.027344463
-0.00494793 0.131912 0.04284045 0.10028641 0.14073822 -0.061786886 -0.07832323 0.016994555
-0.31520462 -0.04490744 -0.0008384359 0.23285104 0.039346885 0.0087411115 -0.21671262 -0.027377473
0.102498904 -0.064795375 -0.1780812 -0.04872191 0.22503276 0.33142206 -0.043191366 -0.15039176
-0.060583543 -0.09636534 -0.18431705 -0.19937755 0.20160916 0.16656445 0.06865985 -0.06471284
-0.046976212 0.054394007 -0.26666862 -0.041392516 -0.020934107 -0.048979122 -0.107243925 0.14592654
0.062163018 -0.0060223406 0.07868751 -0.16066468 0.13037801 0.03825367 0.048460025 -0.025154645
0.13008678 -0.08905316 0.04648151 -0.038974762 0.09346477 -0.0669604 -0.108487085 -0.13696347
-0.105878614 -0.23796797 -0.058060322 -0.03626456 0.008956117 -0.18013863 0.11482918 -0.16880307
0.09741798 -0.07969099 -0.006152453 -0.16775763 0.19263694 0.17742187 0.024069842 -0.20749235
0.0912298 0.07201277 0.11589184 -0.04172648 0.038098052 -0.1428321 -0.11429569 -0.16495185
0.039372645 -0.03581134 0.16862388 0.12183197 0.18377843 0.032069895 0.21259058 -0.15343161
0.013353122 0.09031699 0.07760178 0.09243623 -0.16640708 0.07408485 -0.14960122 0.057414338
0.056057185 0.03837054 -0.01213758 0.04508847 0.057434563 0.022769215 -0.08832103 0.16419941
0.13564968 -0.18148404 0.022678385 0.103377126 -0.09441986 0.06764162 0.09698298 -0.012663128
-0.014138035 0.11479958 -0.07157816 -0.008871578 -0.13240936 0.09964497 -0.024239348 0.0908382
-0.013750959 -0.15411904 -0.103777744 0.11171373 -0.1116383 0.08241322 0.011937969 -0.04674494
-0.000115817915 0.06591773 0.0061056237 -0.086322084 -0.019541614 0.03647895 -0.27857625 -0.07924313
-0.19066586 -0.03353333 0.007013375 0.12514351 0.008948132 -0.12508623 -0.17309836 0.10965111
-0.08443816 -0.14461978 0.1816484 -0.09961148 -0.20252378 -0.062084742 0.018244158 -0.07689148
00000000: 4140 04be 84ac 2abe 5bb3 d5bc 7add 1a3e
00000010: 0294 b03d 89f7 e23d de49 cabc 1561 003e
00000020: eee8 1abe a459 e3bd 9efd 423e dd21 46be
00000030: 985c b5bd a154 e83a 03f7 0a3e 5500 9c3d
00000040: 24bc 183e b700 363e 0297 5abd bb69 4abe
00000050: 1238 dd3d 848d d8bc d661 fb3c 9020 1bbe
00000060: e3e4 eebd c41d fcbd 0542 47be a084 f73d
00000070: b6ee 463e bbdb b53d 44e5 503b 38cc 293e
00000080: 31e0 023c ec65 a0bd 9d2a b33d 2316 3c3e
00000090: b3d9 a93d 5e7d f139 2a8e 743e 41a0 da3d
000000a0: 771c b2be 84e3 cbbd d549 c0bd 5b92 0ebe
000000b0: 3baa aebc 3afa bfbd f71e 453e 8941 23be
000000c0: 261e 743b 4088 7c3e cb06 cebd 7506 01be
000000d0: 71fa 3a3c 7601 edbc 5e73 88bd 1243 45bd
000000e0: 480f 18be 0d5d 2a3e 5381 2dbe ad1d 97be
000000f0: 1f2b 81bd 89ae b1bd 5614 c23d a6e5 e63d
00000100: fdf9 e73c bb50 473c f376 8f3c 70bd a7bd
00000110: de30 36be 1498 81be ad63 3a3e e526 05be
00000120: 66ab 29be da4e 123e 574c db3d 54f8 083d
00000130: 0d79 97bd d2d2 cbbd 8d96 fe3b c372 9dbd
00000140: fd22 3fbe eff2 36be 96f8 193e 6bfc 753c
00000150: 9384 3ebe 4474 1c3d c405 c9bc 3abe 143e
00000160: 0522 7b3e 4179 6c3d 6aac e3bd 486f 193c
00000170: 2e94 22be 7e1e 673c 9c77 893e b02c 70bc
00000180: 8f0f 603e cf2d 80bd a257 2fbc 8706 873e
00000190: 665b 20be fb59 d3bd 7ed1 e63d 7f01 e0bc
000001a0: 3f22 a2bb f013 073e 7879 2f3d f662 cd3d
000001b0: ae1d 103e 3f14 7dbd ee67 a0bd 2a38 8b3c
000001c0: 8062 a1be ddf0 37bd 7bca 5bba 8170 6e3e
000001d0: 332a 213d e136 0f3c eae9 5dbe b946 e0bc
000001e0: f2ea d13d 70b3 84bd eb5a 36be a090 47bd
000001f0: fd6e 663e 27b0 a93e 6ee9 30bd 4c00 1abe
00000200: 7326 78bd 315b c5bd 9cbd 3cbe a129 4cbe
00000210: a272 4e3e df8f 2a3e 899d 8c3d 2a88 84bd
00000220: 216a 40bd 40cc 5e3d ca88 88be 338b 29bd
00000230: 017e abbc 559e 48bd b4a2 dbbd c46d 153e
00000240: a69e 7e3d 0e57 c5bb eb26 a13d 4885 24be
00000250: d081 053e e1af 1c3d 057e 463d 1d11 cebc
00000260: 7835 053e 8161 b6bd 6563 3e3d 00a4 1fbd
00000270: 756a bf3d 8922 89bd 7a2e debd 2740 0cbe
00000280: e3d6 d8bd e0ad 73be a9d0 6dbd 268a 14bd
00000290: adbc 123c 4376 38be 902b eb3d b6da 2cbe
000002a0: 1483 c73d 0835 a3bd 849a c9bb a8c8 2bbe
000002b0: 9e42 453e 14ae 353e 1e2e c53c e078 54be
000002c0: b0d6 ba3d 6e7b 933d b358 ed3d 63e9 2abd
000002d0: b40c 1c3d 9442 12be dc13 eabd 23e9 28be
000002e0: 3645 213d e9ae 12bd bdab 2c3e 0a83 f93d
000002f0: 6a30 3c3e b95b 033d 58b1 593e 2d1d 1dbe
00000300: 0ec7 5a3c 1df8 b83d afed 9e3d 354f bd3d
00000310: 9e66 2abe ccb9 973d 1031 19be 4c2b 6b3d
00000320: 389c 653d 6d2a 1d3d b3dc 46bc b0ae 383d
00000330: 8140 6b3d 8186 ba3c a8e1 b4bd e423 283e
00000340: c0e7 0a3e f4d6 39be 05c8 b93c 63b7 d33d
00000350: 335f c1bd b187 8a3d 039f c63d 0279 4fbc
00000360: 37a3 67bc 0b1c eb3d 9297 92bd 185a 11bc
00000370: 5296 07be a912 cc3d 9991 c6bc 6109 ba3d
00000380: b44b 61bc 62d1 1dbe 6d89 d4bd 2bca e43d
00000390: 9fa2 e4bd 43c8 a83d 7997 433c 9f77 3fbd
000003a0: 45e3 f2b8 e0ff 863d af11 c83b a2c9 b0bd
000003b0: bc15 a0bc f46a 153d 8ca1 8ebe 394a a2bd
000003c0: e93d 43be 3f5a 09bd 74d0 e53b 9f25 003e
000003d0: 309b 123c 9b16 00be b240 31be c390 e03d
000003e0: eaed acbd 3517 14be 0a02 3a3e 1b01 ccbd
000003f0: 6562 4fbe 924c 7ebd c674 953c 4879 9dbd

model_12/batch_normalization_96/batchnorm/sub f4 [32]
-0.16047114 -0.006763761 -0.121583745 0.01201907 -0.1021047 -0.2047137 -0.095786095 -0.116725706
-0.07983281 -0.029544663 -0.02119786 -0.04252763 -0.13612312 -0.023637457 -0.102860436 -0.030028034
-0.10139416 -0.12781966 -0.06453802 -0.025430953 -0.05897845 -0.21912971 -0.030351963 -0.14057916
-0.1667391 -0.0635475 -0.042056236 -0.13093828 -0.13761781 -0.11052015 -0.16262285 -0.04077444
00000000: 8c52 24be 8aa2 ddbb e600 f9bd a2eb 443c
00000010: 451c d1bd 78a0 51be 802b c4bd e30d efbd
00000020: 627f a3bd a607 f2bc 22a7 adbc 7431 2ebd
00000030: dc63 0bbe 57a3 c1bc 7ea8 d2bd 5afd f5bc
00000040: bea7 cfbd 28e3 02be 822c 84bd 9354 d0bc
00000050: 6393 71bd 8a63 60be aea4 f8bc fcf3 0fbe
00000060: a8bd 2abe 3125 82bd 2943 2cbd af14 06be
00000070: afeb 0cbe 6358 e2bd 9b86 26be 1903 27bd

model_12/batch_normalization_97/batchnorm/mul_1;model_12/conv1d_97/conv1d/Squeeze;model_12/batch_normalization_97/batchnorm/mul;model_12/conv1d_97/conv1d;model_12/conv1d_103/conv1d f4 [72, 1, 3, 32]
-0.17031291 0.055015948 0.0039691725 0.10391666 0.17093578 -0.03590611 -0.019501477 -0.039053965
-0.055216003 -0.11866742 0.10543787 -0.105797485 -0.13186827 -0.005112115 -0.06269105 0.09652519
0.042874157 0.1669623 -0.05947041 -0.13453975 0.09387423 -0.14300378 0.02504703 0.0031993347
0.10885077 -0.16144413 0.0108449645 0.14006329 0.097462654 0.023007387 -0.10478008 -0.027847806
-0.05867317 -0.07573158 0.088011496 -0.002805582 -0.16177216 0.053297322 0.10293973 -0.04143929
0.11573084 0.0051330472 0.15424445 -0.082620785 -0.02054631 -0.0019243513 0.17811951 0.039239094
-0.036538385 0.20031288 0.08028031 -0.0014312302 0.19347367 -0.23528606 0.176308 -0.018877296
-0.07928631 -0.023484254 0.1482271 -0.008935741 -0.15745993 -0.06069603 0.17860287 -0.03132223
0.09934825 0.086662285 0.09984686 0.07021144 -0.11951621 0.08735379 0.08542271 -0.112739906
0.015781509 0.089470714 0.10933574 0.08226883 -0.027251763 0.11724814 0.08009256 0.17513272
0.10387971 -0.05125027 -0.16528349 -0.08642985 -0.05946006 -0.12074646 0.1044147 0.16274181
-0.18619771 -0.03687046 -0.15213239 0.07806059 -0.105775535 0.106619425 0.072448194 0.021196287
0.20662308 0.08277943 0.10024775 -0.05639202 0.050510615 0.10420016 -0.053803526 0.019036477
-0.16857876 -0.109596856 0.07200426 -0.07048325 0.069398254 0.1335774 -0.04108366 0.18737279
0.152059 -0.073951654 -0.036760323 0.16108549 0.021349847 0.01271562 -0.14173791 -0.24708733
-0.09571663 0.07319529 0.157231 0.02441053 0.15683946 0.16671313 -0.15326022 -0.11128209
-0.12636018 -0.064206846 0.11464537 0.24980849 0.091565385 0.25562498 0.055419274 0.15481599
0.025481872 0.14431614 -0.0074056857 -0.020603364 -0.104333445 0.1194408 0.10185722 -0.0021926148
0.13552904 0.087667055 -0.09208919 0.04771828 -0.22221045 0.24981105 -0.004368288 0.23593293
-0.02897883 -0.12380879 0.16730778 -0.14137077 0.119205125 0.07455973 0.05221592 -0.17430033
0.015092034 0.22005075 0.06776596 0.07320039 -0.025592618 -0.07596866 -0.051073365 -0.12120774
-0.20725328 0.012948206 -0.08881327 0.01951555 0.121626146 -0.13498607 0.063023984 -0.062120743
-0.023651918 -0.1351629 -0.14431292 -0.027238403 -0.055308957 0.16744274 0.18864574 0.10090938
0.014171518 -0.14994875 -0.0738475 0.04855171 -0.01668862 0.041174702 -0.2105653 -0.08195714
-0.012067155 0.15259463 -0.2918844 0.06787254 -0.04572181 -0.073230736 0.06338382 0.039158486
-0.048430674 -0.17136398 -0.11077853 -0.06795718 0.0162558 -0.13502924 -0.09791803 0.10618867
-0.11778812 -0.254675 -0.120912574 0.09313847 0.12027074 0.16837183 -0.2125141 -0.26862127
-0.005195741 0.17549956 0.080486484 0.080404826 -0.21385626 0.01361588 -0.24880853 -0.181725
0.15949717 0.050142545 0.14027792 0.06487806 -0.027241088 0.06764364 -0.2384618 0.07498134
0.050039187 0.107161894 0.022175968 -0.0074506383 -0.19127072 0.03938229 -0.040183365 -0.24769555
-0.026207423 -0.1359513 -0.0001988846 0.034433756 0.19337985 -0.09467571 0.16914114 0.22754845
0.10448808 -0.07350657 0.15113617 0.23426637 0.109488755 -0.08768764 -0.086757086 -0.16013224
00000000: 8266 2ebe 6758 613d d50f 823b 42d2 d43d
00000010: ca09 2f3e 4912 13bd 90c1 9fbc 0df7 1fbd
00000020: 2d2a 62bd e807 f3bd cfef d73d 5aac d8bd
00000030: 7a08 07be 8783 a7bb 2a64 80bd 00af c53d
00000040: d09c 2f3d 2af8 2a3e 3f97 73bd cac4 09be
00000050: 2241 c03d 956f 12be 6e2f cd3c eeab 513b
00000060: 27ed de3d 9c51 25be 14af 313c c06c 0f3e
00000070: 809a c73d fd79 bc3c f096 d6bd 1521 e4bc
00000080: 4753 70bd 2919 9bbd 5f3f b43d dbdd 37bb
00000090: 9aa7 25be 4b4e 5a3d 11d2 d23d 3fbc 29bd
000000a0: 4a04 ed3d 1f33 a83b 42f2 1d3e 1635 a9bd
000000b0: bc50 a8bc 843a fcba f664 363e 2cb9 203d
000000c0: 46a9 15bd d21e 4d3e 016a a43d 1e98 bbba
000000d0: f61d 463e d4ee 70be 168a 343e 8fa4 9abc
000000e0: dc60 a2bd 0d62 c0bc d8c8 173e 3767 12bc
000000f0: 2d3d 21be 669c 78bd ace3 363e bd4b 00bd
00000100: 1877 cb3d ff7b b13d 837c cc3d 04cb 8f3d
00000110: eac4 f4bd 8be6 b23d 1af2 ae3d 2ee4 e6bd
00000120: 3948 813c 6c3c b73d 6beb df3d 8f7c a83d
00000130: 173f dfbc cb1f f03d 9107 a43d fe55 333e
00000140: e3be d43d ceeb 51bd 1340 29be 2202 b1bd
00000150: 648c 73bd ec49 f7bd 60d7 d53d caa5 263e
00000160: 9daa 3ebe 7b05 17bd 98c8 1bbe 3bde 9f3d
00000170: d8a0 d8bd 495b da3d b85f 943d d6a3 ad3c
00000180: 0095 533e 4388 a93d b14e cd3d 52fb 66bd
00000190: 38e4 4e3d e566 d53d 1661 5cbd 63f2 9b3c
000001a0: e99f 2cbe 5174 e0bd f876 933d 8659 90bd
000001b0: ac20 8e3d 84c8 083e 5747 28bd a7de 3f3e
000001c0: 5bb5 1b3e f773 97bd fe91 16bd 98f3 243e
000001d0: e0e5 ae3c 2d55 503c be23 11be 7604 7dbe
000001e0: 1507 c4bd 6ae7 953d 2a01 213e 98f8 c73c
000001f0: 869a 203e d9b6 2a3e 3ff0 1cbe dde7 e3bd
00000200: 9064 01be e17e 83bd 31cb ea3d cccd 7f3e
00000210: a286 bb3d 47e1 823e 52ff 623d 1588 1e3e
00000220: 5cbf d03c 9cc7 133e 65ab f2bb 63c8 a8bc
00000230: c6ac d5bd 619d f43d 859a d03d f9b1 0fbb
00000240: 20c8 0a3e c98a b33d 4299 bcbd 3e74 433d
00000250: 238b 63be 78ce 7f3e db23 8fbb 6798 713e
00000260: 0365 edbc 778f fdbd bb52 2b3e 80c3 10be
00000270: d121 f43d c6b2 983d 5ce0 553d c97b 32be
00000280: 9444 773c fc54 613e e1c8 8a3d 16ea 953d
00000290: 9ca7 d1bc 7595 9bbd 4e32 51bd c33b f8bd
000002a0: 343a 54be b624 543c bbe3 b5bd 13df 9f3c
000002b0: 2117 f93d ca39 0abe b812 813d 5272 7ebd
000002c0: abc1 c1bc 2568 0abe c4c6 13be 1223 dfbc
000002d0: a58b 62bd 1c76 2b3e 592c 413e 94a9 ce3d
000002e0: a82f 683c 2a8c 19be 5c3d 97bd 28de 463d
000002f0: 93b6 88bc cea6 283d 6e9e 57be 25d9 a7bd
00000300: 51b5 45bc c441 1c3e df71 95be c200 8b3d
00000310: cb46 3bbd fff9 95bd 60cf 813d a664 203d
00000320: 3e5f 46bd 0a7a 2fbe dbdf e2bd 222d 8bbd
00000330: e22a 853c 1b45 0abe 4089 c8bd 7279 d93d
00000340: e63a f1bd c364 82be 03a1 f7bd 62bf be3d
00000350: 8150 f63d aa69 2c3e 4c9d 59be ba88 89be
00000360: 0941 aabb 28b6 333e 19d6 a43d 49ab a43d
00000370: 23fd 5abe 2415 5f3c aac7 7ebe 1e16 3abe
00000380: 3a53 233e 4562 4d3d 04a5 0f3e cade 843d
00000390: b428 dfbc c088 8a3d 552f 74be d18f 993d
000003a0: e4f5 4c3d b277 db3d 60aa b53c 7c24 f4bb
000003b0: 79dc 43be 534f 213d 5097 24bd e7a3 7dbe
000003c0: f3b0 d6bc d136 0bbe ae8b 50b9 690a 0d3d
000003d0: 5e05 463e 57e5 c1bd 5633 2d3e 7602 693e
000003e0: d9fd d53d 9d8a 96bd 71c3 1a3e 86e3 6f3e
000003f0: a43b e03d 9495 b3bd b3ad b1bd b5f9 23be

model_12/batch_normalization_97/batchnorm/sub f4 [72]
-0.3453653 -0.31665123 -0.3633934 -0.37939218 0.38177505 0.25549448 -0.087469205 -0.27859706
-0.68577117 0.44197258 -0.024194442 0.299596 0.019596308 0.07535148 0.08420621 0.46740472
0.122656114 -0.27391577 0.20496622 0.2599704 -0.23936859 -0.08771349 -0.25368184 -0.33411223
0.047062106 -0.23635504 -0.34632415 -0.030994684 0.45692226 0.10258965 0.44041577 -0.16560847
-0.23197529 0.39518476 -0.5758075 -0.2201275 -0.085071154 -0.08793554 0.32438558 0.2919646
-0.4900264 0.083129115 -0.49299654 -0.096837014 -0.21840481 0.06727463 0.12245156 -0.12279944
0.009236129 -0.27545193 0.27436894 0.14405708 -0.29328787 0.04193539 -0.16220039 0.13628942
0.18282604 0.17135446 0.13865998 -0.32832146 -0.010141347 0.47220954 0.122952424 0.17728774
0.023282945 -0.22629356 0.11728093 0.044641376 0.5779302 0.19101605 0.25621378 -0.07607712
00000000: b8d3 b0be 1c20 a2be b30e babe b13f c2be
00000010: 0578 c33e 2cd0 823e 0e23 b3bd 46a4 8ebe
00000020: b38e 2fbf 3b4a e23e 6c33 c6bc a664 993e
00000030: 7088 a03c e051 9a3d 4e74 ac3d ac4f ef3e
00000040: 2133 fb3d b03e 8cbe aae2 513e d71a 853e
00000050: 0a1d 75be 21a3 b3bd 96e2 81be c210 abbe
00000060: 32c4 403d 0e07 72be 6651 b1be 90e8 fdbc
00000070: b7f1 e93e 861a d23d 2d7e e13e 4495 29be
00000080: ee8a 6dbe a855 ca3e 1f68 13bf 1a69 61be
00000090: c939 aebd 8c17 b4bd de15 a63e 627c 953e
000000a0: bee4 fabe 993f aa3d 0b6a fcbe 7c52 c6bd
000000b0: 83a5 5fbe 48c7 893d e2c7 fa3d 467e fbbd
000000c0: 2253 173c 0908 8dbe 167a 8c3e b383 133e
000000d0: d429 96be 72c4 2b3d dc17 26be 748f 0b3e
000000e0: c036 3b3e 8b77 2f3e e2fc 0d3e c019 a8be
000000f0: e427 26bc 73c5 f13e 7bce fb3d eb8a 353e
00000100: e0bb be3c 80b9 67be fc30 f03d e0d9 363d
00000110: 3cf3 133f b699 433e 742e 833e 52ce 9bbd
